…
          "base_uri": "https://localhost:8080/"
        },
        "id": "LsBph_Y18vm_",
        "outputId": "5a643271-6714-4dd1-9256-c7892170ee32"
      },
      "execution_count": null,
      "outputs": [
        {
          "output_type": "stream",
          "name": "stdout",
          "text": [
            "Model: \"sequential_6\"\n",
            "_________________________________________________________________\n",
            " Layer (type)                Output Shape              Param #   \n",
            "=================================================================\n",
            " conv2d_1 (Conv2D)           (None, 30, 30, 32)        896       \n",
            "                                                                 \n",
            " max_pooling2d (MaxPooling2D  (None, 15, 15, 32)       0         \n",
            " )                                                               \n",
            "                                                                 \n",
            " conv2d_2 (Conv2D)           (None, 13, 13, 64)        18496     \n",
            "                                                                 \n",
            " max_pooling2d_1 (MaxPooling  (None, 6, 6, 64)         0         \n",
            " 2D)                                                             \n",
            "                                                                 \n",
            " conv2d_3 (Conv2D)           (None, 4, 4, 128)         73856     \n",
            "                                                                 \n",
            " max_pooling2d_2 (MaxPooling  (None, 2, 2, 128)        0         \n",
            " 2D)                                                             \n",
            "                                                                 \n",
            " flatten_6 (Flatten)         (None, 512)               0         \n",
            "                                                                 \n",
            " dense_12 (Dense)            (None, 500)               256500    \n",
            "                                                                 \n",
            " dropout_6 (Dropout)         (None, 500)               0         \n",
            "                                                                 \n",
            " dense_13 (Dense)            (None, 100)               50100     \n",
            "                                                                 \n",
            "=================================================================\n",
            "Total params: 399,848\n",
            "Trainable params: 399,848\n",
            "Non-trainable params: 0\n",
            "_________________________________________________________________\n"
          ]
        }
…
